Model: "sequential"
_________________________________________________________________
Layer (type)                 Output Shape              Param #
=================================================================
flatten (Flatten)            (None, 561)               0
_________________________________________________________________
dropout (Dropout)            (None, 561)               0
_________________________________________________________________
dense (Dense)                (None, 128)               71936
_________________________________________________________________
dense_1 (Dense)              (None, 64)                8256
_________________________________________________________________
batch_normalization (BatchNo (None, 64)                256
_________________________________________________________________
dense_2 (Dense)              (None, 6)                 390
=================================================================
Total params: 80,838
Trainable params: 80,710
Non-trainable params: 128
